统计学习/期末大作业/07_张宏伟_1/代码/model.pth (torch, 41951 bytes, 2 tensors)

fc.weight f4 [2, 5120]
00000000: 3110 3a3e 876b 54bd bcb5 11be 5f53 11be
00000010: e32f 70be eee3 1dbc 1870 49bc 1b89 ae3d
00000020: 18a0 c23d 0aa0 72bd 580c 8d3d 2a5a 29bd
00000030: 4593 b1bd f1a5 f43c b7eb d3bd 8294 e33b
00000040: 709c 9b3d a14e 8d3d f23d 02bd 6a35 5fba
00000050: 15d6 89bc 5520 683d bb58 5dbd 55dd 0dbd
00000060: 66e9 cbbb c732 cabd 2210 8abd a200 5ebe
00000070: 18ee 893b 746b 053e b144 84bd 4d6a bf3c
00000080: ac5c 943d d242 ca3d 4362 cc3d 118e e8bd
00000090: ac27 dd3d f49f aebd 75d0 073e 9288 5a3e
000000a0: 3728 be3c 5ae1 66bd 07fd 7abd 6985 0fbe
000000b0: 203e 773e 95f2 533e 1d70 423d b4a6 fabd
000000c0: 4c0c 9c3b 3962 553e 3791 f53c 0bee 083e
000000d0: b807 13be 367c 26be ec48 d43c 22be a73c
000000e0: 922f 28be 01de 57bd f30c 473e c822 a6bd
000000f0: b5a5 2d3e e646 943c 1191 973c 824d 013e
00000100: 5e4a c8bd 85a9 93be d1cd 0c3e 805b c03d
00000110: 973b 22bc 757d 07bd 30e8 57be 33be 6dbd
00000120: e1ac 00bd d689 9a3d c988 8ebd ecb5 2cbd
00000130: 4358 5b3d 9e2b b73c 1000 24bd a737 8d3d
00000140: 4a87 753e 5b8c ccbc 7586 8bbd 8623 193e
00000150: e762 4bbd 0e38 c4bd dc6c a5bd 216f 113d
00000160: 14e7 59bd 646b 853c 5550 b93d 9ff7 523d
00000170: 41ab 183d 163f b5bc 9ac5 0ebd 7099 483e
00000180: 9279 913a 8d4c 5dbd fc03 7f3e 05ca b1bd
00000190: f2dd a2bc b45f 49bd 08ed 86bd eb84 223d
000001a0: e1e8 22be a663 c73c 654f cfbc 9085 1c3d
000001b0: 94d5 4c3e bd64 9cbe ce8e 7a3d 0bcb b03b
000001c0: 8ced 443e d681 5abd 36ae 00bd da2c ff3c
000001d0: 6ab3 153d 2aea 2abd e6d5 bc3d 5d42 2fbc
000001e0: a4d3 b5b9 696e 27be af24 af3d ec80 1f3e
000001f0: 2ae7 febc 9cfe 4abe dc2d fabd 109e d0bb
00000200: 7d49 823c 3c68 9d3d 9b72 623d abba 263e
00000210: 2082 83bd c4b9 57bd 2b05 c9bd b635 adbc
00000220: e45c 13be 1361 d6bc 171e 81be d1a0 06be
00000230: 500f 48be 22f7 813d 39a5 abbd 0fda 93bc
00000240: e990 d9bd ef88 0d3d 9555 bdbd e487 d93d
00000250: 29b8 dc3d 15d6 73be b17b 25be d170 ab3d
00000260: 70e5 ccbd b5f2 4b3d 424d 11bd f546 a83e
00000270: 44ad 5cbd 734c 16be b979 1b3e 1bdf fa3d
00000280: f203 dbbd 6c40 0abe 4651 323d 5408 bc3c
00000290: cd3d 783e 65b3 86bd 201c 303d 3f63 673d
000002a0: db45 353d ecf7 7a3d 9e5e 86bc 43ce f83c
000002b0: 37b1 f0bc 0e28 853d 798f 4a3b a9b1 203e
000002c0: e166 58be f692 233e f392 5cbc 4a2d c73d
000002d0: 838c 46be 37bb cf3c 9e26 d8bd c7bb 28bd
000002e0: 7091 683b 5746 cb3d 2bb6 e2bd f79e 26be
000002f0: 282c 663d 9391 d53d e8ca 6e3c 2940 013e
00000300: 5b5a e5bd 32d0 3b3d 7d35 023e e5f9 6b3d
00000310: 50fd 67bd 9482 b83e ff74 eb3c b26f 80bd
00000320: 9def 62be 0994 b7bd 38a7 ddbc 12fb 81bd
00000330: da9f 223c 8dd6 1dbc 048c bd3d aae8 7a3d
00000340: e320 203e ec15 963d bdc1 473c 6626 7d3d
00000350: 60f4 09be 7cfa afbc a5b4 1e3e 183a a83c
00000360: 005a 67bd 71bb 74bd 0f8b 433c 73b4 a03d
00000370: 113a 003e bf0f 8e3d 3553 f53c 4208 9a3e
00000380: 7f20 c43d 758a 78be fde4 293e 1fc6 a7bd
00000390: 07ca 13bd 6594 a63c 9f15 cdbd 9365 cb3d
000003a0: da1d 833e 2f8d 863c a700 be3c 41ab c2bd
000003b0: a686 9d3c d47d 96bc c1f2 77bd 6f8e 2a3d
000003c0: 7400 13bd 68ac 51bd 1121 933d 559b 113e
000003d0: 0cd7 f8bc 7ba5 1bbc de31 4cbd c079 1ebe
000003e0: 9230 dd3d de54 373d 208c 413b 8c5a d9bb
000003f0: d05b d4b9 5ddb 903e cfa4 d0bc e222 a33d
0.18170239 -0.05186036 -0.14229482 -0.1419196 -0.23455767 -0.009636862 -0.012294792 0.085222445
0.09503192 -0.059234656 0.0688712 -0.041345753 -0.086706676 0.029864283 -0.103476934 0.0069451937
0.075981975 0.06899763 -0.031797357 -0.0008514734 -0.016825715 0.05667146 -0.054039698 -0.034634907
-0.0062228916 -0.09872966 -0.06741358 -0.21679929 0.004209291 0.13029271 -0.06458414 0.023366118
0.07244238 0.09876026 0.099796794 -0.11355222 0.107985824 -0.085266024 0.13263114 0.2134116
0.023212535 -0.056367256 -0.061276462 -0.14015736 0.24144793 0.20698006 0.0474702 -0.12238827
0.004762208 0.2083825 0.02997647 0.13372056 -0.14358413 -0.1625832 0.025913678 0.020476405
-0.16424397 -0.052701954 0.19438533 -0.08112103 0.16957743 0.018100213 0.01850179 0.12627223
-0.097798094 -0.2884027 0.13750388 0.09392452 -0.009901903 -0.03307863 -0.21084666 -0.058042716
-0.03141487 0.07545821 -0.069596834 -0.04216568 0.05355097 0.022359665 -0.040039122 0.068953805
0.2397739 -0.02496927 -0.06812755 0.14954957 -0.049654868 -0.09581004 -0.08077404 0.03550637
-0.05319889 0.01628656 0.09048525 0.05150568 0.037272695 -0.022124808 -0.034856416 0.19589782
0.0011098853 -0.054028083 0.24903864 -0.0868111 -0.019881222 -0.049163535 -0.06588179 0.03967754
-0.15909149 0.024339508 -0.025306413 0.038213313 0.20003349 -0.30545607 0.061171345 0.0053952984
0.19231242 -0.053346477 -0.03141614 0.031149317 0.036548056 -0.041727223 0.092204854 -0.010696975
-0.00034680695 -0.16350712 0.08551919 0.15576524 -0.031116087 -0.19823688 -0.12215778 -0.006366499
0.015904183 0.07685897 0.055285078 0.16282146 -0.06421304 -0.052667394 -0.09815439 -0.021143775
-0.14390904 -0.026169335 -0.2521827 -0.13147284 -0.19537091 0.06345965 -0.08381123 -0.018048314
-0.106233425 0.03455442 -0.09244839 0.10621622 0.10777313 -0.23812135 -0.16160466 0.083711274
-0.10004699 0.04979201 -0.03547407 0.32866636 -0.053876176 -0.146776 0.15183152 0.12249585
-0.10694112 -0.13501137 0.04353454 0.02295319 0.24242325 -0.065771855 0.042995572 0.056491133
0.044256072 0.061271593 -0.016402539 0.03037179 -0.029381378 0.065017805 0.003090827 0.15692772
-0.21132995 0.1597403 -0.01346277 0.09725435 -0.19389538 0.025357826 -0.10554241 -0.041194703
0.0035487078 0.09925526 -0.11069902 -0.16271578 0.056194454 0.10428157 0.014574744 0.12622131
-0.111988746 0.045852847 0.12715717 0.057611365 -0.056638062 0.36037123 0.028742312 -0.06271304
-0.22161718 -0.08963782 -0.027057275 -0.06346716 0.009925807 -0.009633672 0.092552215 0.061257042
0.15637545 0.073284 0.012192187 0.061804198 -0.13472128 -0.021481745 0.15498598 0.020535514
-0.056482315 -0.05974907 0.01193501 0.07846918 0.1252215 0.06936597 0.029946903 0.30084425
0.09576511 -0.24271567 0.16591258 -0.081920855 -0.03608134 0.020334432 -0.100138895 0.09931483
0.25608712 0.016424743 0.02319367 -0.0950532 0.019229244 -0.018370546 -0.060534243 0.04163974
-0.035889104 -0.05118981 0.07184041 0.1421941 -0.03037598 -0.009499903 -0.049852245 -0.15476131
0.1080028 0.04475867 0.0029532984 -0.0066331085 -0.00040504197 0.2829236 -0.025469212 0.07965638

fc.bias f4 [2]
00000000: 9fd9 e9bd 0934 0d3e
-0.11418461 0.13789381
